{"format":"m3u8-proxy-nn-v2","meta":{"savedAt":"2025-12-21T13:31:35.347Z","inputShape":20,"outputShape":1,"version":"1.0.0"},"modelTopology":{"class_name":"Sequential","config":{"name":"sequential_2","layers":[{"class_name":"Dense","config":{"units":64,"activation":"relu","use_bias":true,"kernel_initializer":{"class_name":"VarianceScaling","config":{"scale":1,"mode":"fan_avg","distribution":"normal","seed":null}},"bias_initializer":{"class_name":"Zeros","config":{}},"kernel_regularizer":{"class_name":"L1L2","config":{"l1":0,"l2":0.01}},"bias_regularizer":null,"activity_regularizer":null,"kernel_constraint":null,"bias_constraint":null,"name":"dense_Dense5","trainable":true,"batch_input_shape":[null,20],"dtype":"float32"}},{"class_name":"BatchNormalization","config":{"axis":-1,"momentum":0.99,"epsilon":0.001,"center":true,"scale":true,"beta_initializer":{"class_name":"Zeros","config":{}},"gamma_initializer":{"class_name":"Ones","config":{}},"moving_mean_initializer":{"class_name":"Zeros","config":{}},"moving_variance_initializer":{"class_name":"Ones","config":{}},"beta_regularizer":null,"gamma_regularizer":null,"beta_constraint":null,"gamma_constraint":null,"name":"batch_normalization_BatchNormalization3","trainable":true}},{"class_name":"Dropout","config":{"rate":0.3,"noise_shape":null,"seed":null,"name":"dropout_Dropout3","trainable":true}},{"class_name":"Dense","config":{"units":32,"activation":"relu","use_bias":true,"kernel_initializer":{"class_name":"VarianceScaling","config":{"scale":1,"mode":"fan_avg","distribution":"normal","seed":null}},"bias_initializer":{"class_name":"Zeros","config":{}},"kernel_regularizer":{"class_name":"L1L2","config":{"l1":0,"l2":0.01}},"bias_regularizer":null,"activity_regularizer":null,"kernel_constraint":null,"bias_constraint":null,"name":"dense_Dense6","trainable":true}},{"class_name":"BatchNormalization","config":{"axis":-1,"momentum":0.99,"epsilon":0.001,"center":true,"scale":true,"beta_initializer":{"class_name":"Zeros","config":{}},"gamma_initializer":{"class_name":"Ones","config":{}},"moving_mean_initializer":{"class_name":"Zeros","config":{}},"moving_variance_initializer":{"class_name":"Ones","config":{}},"beta_regularizer":null,"gamma_regularizer":null,"beta_constraint":null,"gamma_constraint":null,"name":"batch_normalization_BatchNormalization4","trainable":true}},{"class_name":"Dropout","config":{"rate":0.2,"noise_shape":null,"seed":null,"name":"dropout_Dropout4","trainable":true}},{"class_name":"Dense","config":{"units":16,"activation":"relu","use_bias":true,"kernel_initializer":{"class_name":"VarianceScaling","config":{"scale":1,"mode":"fan_avg","distribution":"normal","seed":null}},"bias_initializer":{"class_name":"Zeros","config":{}},"kernel_regularizer":{"class_name":"L1L2","config":{"l1":0,"l2":0.01}},"bias_regularizer":null,"activity_regularizer":null,"kernel_constraint":null,"bias_constraint":null,"name":"dense_Dense7","trainable":true}},{"class_name":"Dense","config":{"units":1,"activation":"sigmoid","use_bias":true,"kernel_initializer":{"class_name":"VarianceScaling","config":{"scale":1,"mode":"fan_avg","distribution":"normal","seed":null}},"bias_initializer":{"class_name":"Zeros","config":{}},"kernel_regularizer":null,"bias_regularizer":null,"activity_regularizer":null,"kernel_constraint":null,"bias_constraint":null,"name":"dense_Dense8","trainable":true}}]},"keras_version":"tfjs-layers 4.22.0","backend":"tensor_flow.js"},"weightSpecs":[{"name":"dense_Dense5/kernel","shape":[20,64],"dtype":"float32"},{"name":"dense_Dense5/bias","shape":[64],"dtype":"float32"},{"name":"batch_normalization_BatchNormalization3/gamma","shape":[64],"dtype":"float32"},{"name":"batch_normalization_BatchNormalization3/beta","shape":[64],"dtype":"float32"},{"name":"dense_Dense6/kernel","shape":[64,32],"dtype":"float32"},{"name":"dense_Dense6/bias","shape":[32],"dtype":"float32"},{"name":"batch_normalization_BatchNormalization4/gamma","shape":[32],"dtype":"float32"},{"name":"batch_normalization_BatchNormalization4/beta","shape":[32],"dtype":"float32"},{"name":"dense_Dense7/kernel","shape":[32,16],"dtype":"float32"},{"name":"dense_Dense7/bias","shape":[16],"dtype":"float32"},{"name":"dense_Dense8/kernel","shape":[16,1],"dtype":"float32"},{"name":"dense_Dense8/bias","shape":[1],"dtype":"float32"},{"name":"batch_normalization_BatchNormalization3/moving_mean","shape":[64],"dtype":"float32"},{"name":"batch_normalization_BatchNormalization3/moving_variance","shape":[64],"dtype":"float32"},{"name":"batch_normalization_BatchNormalization4/moving_mean","shape":[32],"dtype":"float32"},{"name":"batch_normalization_BatchNormalization4/moving_variance","shape":[32],"dtype":"float32"}],"weightData":"…"}